Track2-OpenAImer/submission2/model.pth (torch, 106714 bytes, 14 tensors)

cpu f8 [64]
0.0006563170463778079 0.0012892213417217135 0.00016389921074733138 0.000648772343993187 0.001059920759871602 0.00018246467516291887 0.000658169446978718 0.000931319547817111
0.00036939041456207633 0.0009711351012811065 0.0010956001933664083 0.00028029532404616475 0.00040080270264297724 0.0003471293894108385 0.00045374728506430984 0.0005182799068279564
0.001542059239000082 0.00016495691670570523 0.0007461368222720921 0.0005661793402396142 0.0004912803997285664 0.0005801175138913095 0.0001935085456352681 0.0006272793980315328
0.0003696762432809919 0.0002237575245089829 0.0008972006035037339 0.00030549376970157027 0.00028147627017460763 0.0004276686813682318 0.0009355845977552235 0.0005842344835400581
0.001126229064539075 0.0002500137488823384 0.00022161293600220233 0.00018764814012683928 0.000875149096827954 0.0011061038821935654 0.00034654929186217487 0.00087270129006356
0.0008457861258648336 0.0004413348506204784 0.0005059079267084599 0.0019142564851790667 0.001296079601161182 0.00036375384661369026 0.00021976936841383576 0.0002534503291826695
0.0006384708103723824 0.0006599471089430153 0.0012290377635508776 0.0002690680557861924 0.0014804498059675097 0.00022325964528135955 0.0002674207207746804 0.000821276567876339
0.0023023521061986685 0.0002844054251909256 0.0008692835108377039 0.0002827949356287718 0.00017589543131180108 0.0002663697232492268 0.000668408116325736 0.00013355309783946723
00000000: 0000 0020 9681 453f 0000 00e0 621f 553f
00000010: 0000 0080 8b7b 253f 0000 0000 4c42 453f
00000020: 0000 0040 a15d 513f 0000 00a0 7fea 273f
00000030: 0000 0020 2091 453f 0000 0080 7984 4e3f
00000040: 0000 00c0 5735 383f 0000 00c0 78d2 4f3f
00000050: 0000 00c0 47f3 513f 0000 0040 935e 323f
00000060: 0000 0080 5a44 3a3f 0000 0060 ddbf 363f
00000070: 0000 00c0 9dbc 3d3f 0000 00a0 a5fb 403f
00000080: 0000 0080 dd43 593f 0000 0020 099f 253f
00000090: 0000 00a0 0c73 483f 0000 00e0 748d 423f
000000a0: 0000 00a0 2819 403f 0000 00e0 6002 433f
000000b0: 0000 00c0 115d 293f 0000 0040 008e 443f
000000c0: 0000 0060 233a 383f 0000 0080 0e54 2d3f
000000d0: 0000 00a0 4366 4d3f 0000 00c0 5505 343f
000000e0: 0000 0060 6372 323f 0000 0000 1707 3c3f
000000f0: 0000 00a0 40a8 4e3f 0000 0000 ea24 433f
00000100: 0000 0040 bf73 523f 0000 00e0 8862 303f
00000110: 0000 00a0 180c 2d3f 0000 0040 6d98 283f
00000120: 0000 0060 48ad 4c3f 0000 0000 561f 523f
00000130: 0000 00e0 21b6 363f 0000 00c0 bf98 4c3f
00000140: 0000 00e0 f7b6 4b3f 0000 00c0 5eec 3c3f
00000150: 0000 0000 dd93 403f 0000 0040 f95c 5f3f
00000160: 0000 00e0 263c 553f 0000 00e0 c6d6 373f
00000170: 0000 0080 3cce 2c3f 0000 00e0 309c 303f
00000180: 0000 00a0 e1eb 443f 0000 00a0 09a0 453f
00000190: 0000 0040 f522 543f 0000 0080 36a2 313f
000001a0: 0000 00e0 7441 583f 0000 00c0 5943 2d3f
000001b0: 0000 0040 9386 313f 0000 0000 5ee9 4a3f
000001c0: 0000 00e0 61dc 623f 0000 0000 88a3 323f
000001d0: 0000 0020 147c 4c3f 0000 0000 8388 323f
000001e0: 0000 0040 120e 273f 0000 0040 f174 313f
000001f0: 0000 0080 03e7 453f 0000 0060 4c81 213f

conv1.bias f4 [64]
-0.094251625 0.020706186 -0.06114644 -0.30148724 -0.10217715 -0.1585619 0.052431796 -0.24577145
-0.15081929 0.0543705 0.08897408 -0.06993737 0.09749199 0.13128173 -0.23084246 -0.08930536
-0.09829036 0.13956955 0.032920003 -0.058750678 -0.112925306 -0.2932824 -0.08163245 -0.27739736
0.13135943 0.03671 -0.06124822 -0.025330363 -0.20543355 -0.29291123 -0.29385966 -0.20768526
0.054497994 -0.3174765 0.06290707 -0.1950436 -0.022441372 -0.32863495 0.0017001741 -0.11001854
-0.1327259 -0.000922136 0.08637201 0.018805167 -0.21163799 -0.08797962 -0.2579642 0.1928117
-0.025588438 -0.19998555 -0.045683224 -0.15964478 -0.26403448 0.084446184 0.24060957 0.16229296
-0.31574535 -0.02207655 -0.20589153 -0.023329 0.14537767 -0.11537636 -0.05541049 0.09574118
00000000: ff06 c1bd 05a0 a93c b174 7abd 895c 9abe
00000010: 4142 d1bd 0d5e 22be b9c2 563d 83ab 7bbe
00000020: 5f70 1abe 9ab3 5e3d 0b38 b63d 533b 8fbd
00000030: e1a9 c73d b86e 063e f761 6cbe bbe5 b6bd
00000040: 754c c9bd 52eb 0e3e 20d7 063d 8da4 70bd
00000050: 6245 e7bd 1c29 96be ea2e a7bd 0707 8ebe
00000060: 1683 063e 3a5d 163d 6adf 7abd 9f81 cfbc
00000070: 2c5d 52be 76f8 95be c674 96be 72ab 54be
00000080: 4a39 5f3d 488c a2be 6cd5 803d 82b9 47be
00000090: f8d6 b7bc d742 a8be 60d8 de3a 6651 e1bd
000000a0: 4ce9 07be 80bb 71ba cfe3 b03d 4b0d 9a3c
000000b0: a1b7 58be a92e b4bd e213 84be 6e70 453e
000000c0: d89e d1bc 03c9 4cbe 551e 3bbd ec79 23be
000000d0: 872f 87be 1ff2 ac3d 5b62 763e 2030 263e
000000e0: 60a9 a1be e2d9 b4bc 3bd5 52be 761c bfbc
000000f0: e2dd 143e 714a ecbd 1cf6 62bd f413 c43d

cpu f8 [64]
0.0012415298260748386 0.0017147136386483908 0.0011741603957489133 0.0019005488138645887 0.0016385674243792892 0.0012863253941759467 0.0017255424754694104 0.00148434704169631
0.0011552887735888362 0.0016488377004861832 0.0014841557713225484 0.0014069679891690612 0.0015306705608963966 0.001055804081261158 0.0012410340132191777 0.0021540638990700245
0.0016126477858051658 0.0019484527874737978 0.0014327199896797538 0.001411976059898734 0.0012680294457823038 0.0013666414888575673 0.001420786720700562 0.0013989624567329884
0.0017534192884340882 0.0012944547925144434 0.0018495226977393031 0.001824336708523333 0.001552121015265584 0.0017446507699787617 0.0011497529922053218 0.0012440779246389866
0.0020936850924044847 0.0014130582567304373 0.0014408495044335723 0.0015470455400645733 0.0015174077125266194 0.0012868618359789252 0.0015949646476656199 0.0021005470771342516
0.001347901183180511 0.001785622676834464 0.001694265054538846 0.0012150737456977367 0.0017000167863443494 0.0013516598846763372 0.0017710360698401928 0.001838141935877502
0.0015490209916606545 0.0017470949096605182 0.0016505442326888442 0.0016460756305605173 0.0020443485118448734 0.0018052570521831512 0.001975784543901682 0.001613442786037922
0.0013447069795802236 0.0021445925813168287 0.0014162446605041623 0.001518411678262055 0.0016689663752913475 0.0016493821749463677 0.002021161140874028 0.0015290937153622508
00000000: 0000 0080 5a57 543f 0000 00c0 0718 5c3f
00000010: 0000 0020 c93c 533f 0000 00c0 7a23 5f3f
00000020: 0000 0060 a6d8 5a3f 0000 0060 3d13 553f
00000030: 0000 0020 7345 5c3f 0000 0080 cd51 583f
00000040: 0000 00e0 a1ed 523f 0000 0000 ba03 5b3f
00000050: 0000 0020 0051 583f 0000 0060 400d 573f
00000060: 0000 0000 1914 593f 0000 0000 5d4c 513f
00000070: 0000 0020 4655 543f 0000 0040 66a5 613f
00000080: 0000 0060 ef6b 5a3f 0000 0040 67ec 5f3f
00000090: 0000 0060 4379 573f 0000 00c0 4122 573f
000000a0: 0000 0040 80c6 543f 0000 0020 1c64 563f
000000b0: 0000 0020 3647 573f 0000 0080 aceb 563f
000000c0: 0000 00a0 5fba 5c3f 0000 0040 5635 553f
000000d0: 0000 00e0 754d 5e3f 0000 00a0 d2e3 5d3f
000000e0: 0000 0040 116e 593f 0000 0080 9895 5c3f
000000f0: 0000 00e0 69d6 523f 0000 0080 0a62 543f
00000100: 0000 00a0 c626 613f 0000 00c0 cb26 573f
00000110: 0000 0060 5c9b 573f 0000 0080 c758 593f
00000120: 0000 0020 78dc 583f 0000 0060 7d15 553f
00000130: 0000 0040 c421 5a3f 0000 00a0 2a35 613f
00000140: 0000 00e0 8115 563f 0000 00c0 7141 5d3f
00000150: 0000 0040 43c2 5b3f 0000 0080 63e8 533f
00000160: 0000 0020 63da 5b3f 0000 00c0 4525 563f
00000170: 0000 0080 4304 5d3f 0000 00e0 b91d 5e3f
00000180: 0000 00a0 1061 593f 0000 00e0 d89f 5c3f
00000190: 0000 0060 e20a 5b3f 0000 0040 24f8 5a3f
000001a0: 0000 0040 4fbf 603f 0000 0000 cc93 5d3f
000001b0: 0000 0040 852f 603f 0000 0000 456f 5a3f
000001c0: 0000 0020 1c08 563f 0000 0060 8991 613f
000001d0: 0000 0020 2934 573f 0000 0020 aee0 583f
000001e0: 0000 0000 2758 5b3f 0000 00a0 0206 5b3f
000001f0: 0000 00a0 ae8e 603f 0000 00e0 7b0d 593f

layer1.0.bn1.weight f4 [64]
0.5939313 0.79181653 0.7185612 0.58126104 0.5365202 0.46275952 0.86352116 0.7497489
0.5392806 0.6315169 0.5492537 0.49627042 0.7770048 0.5967422 0.63816005 0.6602714
0.5344588 0.8122676 0.8312569 0.75256294 0.7114593 0.76540756 0.673962 0.82723445
0.639036 0.7305247 0.47808743 0.6374042 0.71339184 0.9182748 0.56113607 0.630112
0.5519624 0.792871 0.5749272 0.790861 0.6593173 0.7283901 0.61012435 0.7094869
0.3912786 0.7813021 0.9002878 0.5810723 0.796365 0.45496848 0.65862703 0.6541549
0.6293036 0.7766141 0.97145826 0.7760305 0.8498215 0.64180547 0.4768923 0.6081991
0.55659485 0.9044506 0.44108164 0.6511748 0.6659446 0.6934105 0.8110268 0.67682457
00000000: e20b 183f 7db4 4a3f a0f3 373f 86cd 143f
00000010: 6359 093f d1ee ec3e b90f 5d3f 8bef 3f3f
00000020: 4b0e 0a3f 17ab 213f e49b 0c3f 2817 fe3e
00000030: c9e9 463f 19c4 183f 755e 233f 8c07 293f
00000040: 4bd2 083f c5f0 4f3f 41cd 543f f7a7 403f
00000050: 3222 363f c0f1 433f c688 2c3f a3c5 533f
00000060: dd97 233f ab03 3b3f e0c7 f43e ec2c 233f
00000070: d9a0 363f 0f14 6b3f 9da6 0f3f 054f 213f
00000080: 684d 0d3f 98f9 4a3f 6e2e 133f de75 4a3f
00000090: 05c9 283f c677 3a3f 1c31 1c3f efa0 353f
000000a0: ab55 c83e 6a03 483f 4379 663f 27c1 143f
000000b0: 94de 4b3f a1f1 e83e c89b 283f b276 273f
000000c0: 0a1a 213f 2fd0 463f 7db1 783f efa9 463f
000000d0: e78d 593f 5d4d 243f 3a2b f43e f0b2 1b3f
000000e0: 007d 0e3f 138a 673f 74d5 e13e 64b3 263f
000000f0: 587b 2a3f 5a83 313f 749f 4f3f 6044 2d3f

layer1.0.bn1.bias f4 [64]
-0.24728496 -0.41648647 -0.47947994 -0.14855747 -0.17973787 -0.14808026 -0.53716755 -0.5302858
-0.41474232 -0.29980215 -0.27360538 -0.113930225 -0.38022426 -0.21273059 -0.35425442 -0.25745437
-0.06668658 -0.35382587 -0.5239872 -0.38907155 -0.36411202 -0.4016865 -0.2602205 -0.5399071
-0.24180348 -0.3772636 0.0036906286 -0.3016328 -0.26309308 -0.6582924 0.05261831 -0.39435118
-0.2061516 -0.35959125 -0.20254461 -0.47604573 -0.2763906 -0.42744714 -0.24999228 -0.47755215
-0.1444498 -0.40473872 -0.712639 -0.2831053 -0.45220113 -0.23482116 -0.33049265 -0.41447103
-0.3585224 -0.40312496 -0.6030743 -0.37773985 -0.2509083 -0.26734668 -0.48006237 -0.21890539
-0.097996034 -0.44286868 -0.07233531 -0.4548427 -0.23623446 -0.25820965 -0.5033466 -0.34885418
00000000: 4538 7dbe b73d d5be 657e f5be 731f 18be
00000010: 340d 38be 5aa2 17be d083 09bf cfc0 07bf
00000020: 1b59 d4be ab7f 99be 0116 8cbe 4054 e9bd
00000030: c1ac c2be 0cd6 59be d660 b5be 0fd1 83be
00000040: f992 88bd aa28 b5be 0624 06bf 6334 c7be
00000050: e46c babe daa9 cdbe 9f3b 85be 5a37 0abf
00000060: 559b 77be b228 c1be 79de 713b 9d6f 9abe
00000070: 23b4 86be da85 28bf 4c86 573d 66e8 c9be
00000080: 6819 53be 581c b8be db67 4fbe 44bc f3be
00000090: 1283 8dbe 5ada dabe fafd 7fbe b781 f4be
000000a0: a6ea 13be ea39 cfbe 826f 36bf 2ef3 90be
000000b0: e886 e7be f574 70be 5536 a9be 8c35 d4be
000000c0: 3f90 b7be 6566 cebe 1463 1abf 1e67 c1be
000000d0: 0d77 80be aae1 88be bcca f5be bc28 60be
000000e0: 25b2 c8bd afbf e2be 8924 94bd 24e1 e8be
000000f0: 72e7 71be 0e34 84be 53db 00bf 049d b2be

layer1.0.bn1.running_mean f4 [64]
-0.99083984 -1.9622422 -1.3372343 -1.9111475 0.5100464 -1.1068637 -2.540052 -2.7138064
3.4426703 -0.109677926 1.3365227 0.9907666 -0.021332499 -2.0875578 -3.2219863 -1.936436
-0.69240427 -1.7013737 -1.9486464 -1.8857297 -1.832029 -3.0580816 -1.1561584 -3.841677
-1.3369181 -3.1000724 -0.51417863 -2.442221 -1.2604294 -1.9364048 -6.0715747 -2.522067
-0.02317012 -2.6507578 -1.6784749 -3.0324886 -1.8172067 -3.892363 -2.5116334 -0.6725365
1.3885555 -1.0471396 -0.631368 -1.7131473 -0.9677794 -0.068289414 -2.2057793 0.16859251
-1.2882625 -0.8624988 -1.9917715 -0.71572053 -1.7601588 -0.5876286 3.6908112 -1.1734272
-2.3195856 -2.5475779 0.8708479 0.08360171 -2.097365 -0.1235124 -0.47789994 -2.8743374
00000000: aea7 7dbf c12a fbbf 7e2a abbf 7ba0 f4bf
00000010: 6792 023f b6ad 8dbf 3690 22c0 01af 2dc0
00000020: b654 5c40 d29e e0bd 2d13 ab3f e1a2 7d3f
00000030: 7ec1 aebc 8c9a 05c0 0635 4ec0 23dd f7bf
00000040: 6841 31bf 9dc6 d9bf 3f6d f9bf 975f f1bf
00000050: ed7f eabf 9cb7 43c0 00fd 93bf 09de 75c0
00000060: 2220 abbf 9667 46c0 36a1 03bf 594d 1cc0
00000070: c055 a1bf 1ddc f7bf 574a c2c0 8c69 21c0
00000080: 43cf bdbc 04a6 29c0 44d8 d6bf 4b14 42c0
00000090: 3b9a e8bf 7a1c 79c0 9abe 20c0 5a2b 2cbf
000000a0: 30bc b13f ac08 86bf 55a1 21bf 6948 dbbf
000000b0: 64c0 77bf 52db 8bbd 7d2b 0dc0 84a3 2c3e
000000c0: c9e5 a4bf b9cc 5cbf 5ef2 febf 7639 37bf
000000d0: e24c e1bf d46e 16bf 4036 6c40 dd32 96bf
000000e0: 1774 14c0 840b 23c0 e3ef 5e3f 6037 ab3d
000000f0: 3a3b 06c0 12f4 fcbd 4daf f4be 25f5 37c0

layer1.0.bn1.running_var f4 [64]
2.5485225 4.8053885 3.584772 4.244107 3.2119005 2.9645648 4.711913 5.4945507
3.6955504 3.1345134 3.769409 4.6274076 5.3564053 3.4604883 3.6681306 5.6517553
5.6584644 4.709664 4.6141186 4.8888617 5.0725894 4.9196806 5.72739 12.426887
3.2527504 3.402538 5.669713 2.9462004 4.181789 5.999131 13.893236 4.8340034
3.8485453 6.80332 2.8972204 5.746912 3.3272963 6.795163 4.265656 3.6032128
2.9779048 4.620302 6.8832693 3.878166 4.6901374 2.2384982 3.7570035 3.5952368
3.9739413 3.6337028 5.952502 2.9287176 6.208144 4.4623713 3.5738022 5.006174
4.2132006 8.233895 3.5742455 3.6908572 3.968197 3.7034152 7.9421935 6.680368
00000000: fe1a 2340 bec5 9940 e86c 6540 b9cf 8740
00000010: c78f 4d40 6ebb 3d40 fec7 9640 5cd3 af40
00000020: e683 6c40 de9b 4840 ff3d 7140 b913 9440
00000030: ac67 ab40 a478 5d40 a7c2 6a40 2edb b440
00000040: 2412 b540 91b5 9640 dca6 9340 8e71 9c40
00000050: a752 a240 066e 9d40 c746 b740 87d4 4641
00000060: 102d 5040 2fc3 5940 4a6e b540 8c8e 3c40
00000070: 37d1 8540 e2f8 bf40 b24a 5e41 28b0 9a40
00000080: 914e 7640 ccb4 d940 0f6c 3940 b4e6 b740
00000090: 6cf2 5440 fa71 d940 4180 8840 0a9b 6640
000000a0: fe95 3e40 84d9 9340 be43 dc40 df33 7840
000000b0: 9b15 9640 8e43 0f40 bf72 7040 5c18 6640
000000c0: 0e55 7e40 968e 6840 e57a be40 1c70 3b40
000000d0: 1ea9 c640 bfcb 8e40 2db9 6440 9432 a040
000000e0: 8ad2 8640 09be 0341 70c0 6440 0137 6c40
000000f0: f1f6 7d40 c104 6d40 7326 fe40 93c5 d540

cpu f8 [64]
0.001492149312980473 0.0012640219647437334 0.0011547345202416182 0.0015148508828133345 0.0011592652881518006 0.0018854131922125816 0.0013830085517838597 0.0016448508249595761
0.0013780647423118353 0.0013440565671771765 0.0014121015556156635 0.0011382477823644876 0.0015758045483380556 0.001436799531802535 0.0013272811193019152 0.001345438533462584
0.0013303825398907065 0.0011865833075717092 0.0014022378018125892 0.0014273670967668295 0.0013580458471551538 0.0014340307097882032 0.0013755389954894781 0.0013017223682254553
0.0014079657848924398 0.0013558253413066268 0.0012698579812422395 0.0012153973802924156 0.0013079053023830056 0.0010960354702547193 0.0013550524599850178 0.0011539784027263522
0.0013014369178563356 0.001191025017760694 0.0011754644801840186 0.0013242819113656878 0.0013347161002457142 0.0016466918168589473 0.0014733693096786737 0.00135371636133641
0.001783778890967369 0.0012562164338305593 0.001267376122996211 0.0011350797722116113 0.0013056803727522492 0.0014556983951479197 0.0014296950539574027 0.0011734532890841365
0.001819326658733189 0.00119405600707978 0.001381825190037489 0.001355462009087205 0.0014527272433042526 0.0016410609241575003 0.0015089547960087657 0.001310087158344686
0.0011806739494204521 0.0013289173366501927 0.001221587066538632 0.0011735102161765099 0.0013223113492131233 0.0014420151710510254 0.001444319379515946 0.0012232990702614188
00000000: 0000 0020 8772 583f 0000 0040 b1b5 543f
00000010: 0000 00c0 4eeb 523f 0000 00c0 bed1 583f
00000020: 0000 00a0 4ffe 523f 0000 0000 ffe3 5e3f
00000030: 0000 0020 c2a8 563f 0000 0020 01f3 5a3f
00000040: 0000 00c0 0594 563f 0000 00c0 6105 563f
00000050: 0000 0080 c822 573f 0000 0040 28a6 523f
00000060: 0000 0040 67d1 593f 0000 00c0 5f8a 573f
00000070: 0000 0040 05bf 553f 0000 00a0 2d0b 563f
00000080: 0000 0060 07cc 553f 0000 0020 e470 533f
00000090: 0000 0060 69f9 563f 0000 00c0 cf62 573f
000000a0: 0000 00a0 0e40 563f 0000 00c0 c27e 573f
000000b0: 0000 00c0 6d89 563f 0000 00c0 d153 553f
000000c0: 0000 00c0 6f11 573f 0000 0060 be36 563f
000000d0: 0000 00a0 2bce 543f 0000 0000 bfe9 533f
000000e0: 0000 00a0 c06d 553f 0000 0020 1bf5 513f
000000f0: 0000 0080 8033 563f 0000 00e0 22e8 523f
00000100: 0000 0040 9f52 553f 0000 0060 8583 533f
00000110: 0000 0060 4142 533f 0000 00e0 70b2 553f
00000120: 0000 0080 34de 553f 0000 00e0 b9fa 5a3f
00000130: 0000 0040 c223 583f 0000 00e0 e52d 563f
00000140: 0000 0000 b639 5d3f 0000 0020 f494 543f
00000150: 0000 00c0 c2c3 543f 0000 00a0 de98 523f
00000160: 0000 00a0 6b64 553f 0000 0040 a4d9 573f
00000170: 0000 0060 936c 573f 0000 00e0 d139 533f
00000180: 0000 0020 cfce 5d3f 0000 00e0 3b90 533f
00000190: 0000 0080 cba3 563f 0000 0040 3835 563f
000001a0: 0000 0000 2ecd 573f 0000 00c0 1be3 5a3f
000001b0: 0000 00e0 03b9 583f 0000 0060 e776 553f
000001c0: 0000 0000 1b58 533f 0000 0020 e2c5 553f
000001d0: 0000 0020 b503 543f 0000 0000 0f3a 533f
000001e0: 0000 0000 2daa 553f 0000 0000 40a0 573f
000001f0: 0000 0020 eaa9 573f 0000 0060 e30a 543f

layer1.0.bn2.weight f4 [64]
1.6432247 1.4225425 1.7517408 1.4587333 1.5874847 1.4911029 1.9611278 1.7132742
1.590514 1.8583524 1.5686772 1.314284 1.5275826 1.3497794 1.2510366 1.5337259
1.4872795 1.3073311 1.7197988 1.6652211 1.4249694 1.5603486 1.5508361 1.5434501
1.5863848 1.4524646 1.4025798 1.3746718 1.4070446 1.4236951 1.4546015 1.3873608
1.4233534 1.4000721 1.4333707 1.5329596 1.3401128 1.7657752 1.5548501 1.3141104
1.5120996 1.6345083 1.2661057 1.4869725 1.2669433 1.4415278 1.5734365 1.3790988
1.6958737 1.2797478 1.209536 1.7569805 1.6623837 1.3060468 1.1975819 1.1588867
1.4474975 1.666577 1.5506924 1.1327196 1.1746098 1.4620885 1.7901984 1.4774923
00000000: 3055 d23f df15 b63f 0b39 e03f c6b7 ba3f
00000010: b332 cb3f 76dc be3f 3c06 fb3f 924c db3f
00000020: f695 cb3f 7ede ed3f 6aca c83f 753a a83f
00000030: d487 c33f 92c5 ac3f f821 a03f 2151 c43f
00000040: 2d5f be3f a056 a73f 5e22 dc3f f725 d53f
00000050: 6665 b63f 81b9 c73f cc81 c63f c68f c53f
00000060: a80e cb3f 5cea b93f bc87 b33f 3ff5 af3f
00000070: 0a1a b43f a43b b63f 6230 ba3f 0a95 b13f
00000080: 7230 b63f 9035 b33f b178 b73f 0538 c43f
00000090: d188 ab3f ec04 e23f 5405 c73f c534 a83f
000000a0: 7b8c c13f 9137 d13f c00f a23f 1d55 be3f
000000b0: 332b a23f fc83 b83f 5e66 c93f 4f86 b03f
000000c0: 6412 d93f c7ce a33f 13d2 9a3f bde4 e03f
000000d0: fdc8 d43f 8b2c a73f 5d4a 993f 6656 943f
000000e0: 9947 b93f 6552 d53f 177d c63f f5fc 903f
000000f0: 9d59 963f b725 bb3f 3925 e53f 781e bd3f

layer1.0.bn2.bias f4 [64]
0.15456784 0.06073067 -0.060317233 0.04959731 -0.025886042 -0.13322113 0.080618635 -0.06952244
-0.012251852 -0.1181245 -0.06660281 0.20133403 0.16808596 0.15124787 0.06698344 0.0845273
0.12454755 0.006487679 -0.16056025 0.05851413 0.12940274 0.009148827 0.036856476 0.23300019
-0.046858218 0.13457981 0.030054443 0.098370194 0.0009923216 -0.024955265 0.14574075 0.19050974
0.0959728 0.17078498 0.044661485 -0.029068043 0.14741118 -0.15832163 0.044704314 0.07034344
0.029706044 0.21901236 -0.024600882 -0.09001705 -0.01640226 0.07588797 0.08355226 0.24979009
-0.063907005 0.22755799 0.13369636 0.03622569 0.04248057 0.07228263 0.33894125 0.137554
-0.005138309 0.07806524 -0.036324814 0.15238976 0.1963238 0.019168722 0.01942411 0.12986715
00000000: 0847 1e3e b9c0 783d 340f 77bd 8d26 4b3d
00000010: f70e d4bc 1f6b 08be 621b a53d c861 8ebd
00000020: febb 48bc 42eb f1bd 0e67 88bd 822a 4e3e
00000030: ba1e 2c3e b9e0 1a3e 9d2e 893d a61c ad3d
00000040: c912 ff3d 9996 d43b e869 24be 83ac 6f3d
00000050: 2782 043e f6e4 153c d1f6 163d 9a97 6e3e
00000060: 67ee 3fbd 4acf 093e bc34 f63c 5076 c93d
00000070: ca10 823a fc6e ccbc 103d 153e fc14 433e
00000080: 638d c43d 42e2 2e3e f6ee 363d 1b20 eebc
00000090: f5f2 163e 111f 22be df1b 373d 3910 903d
000000a0: 175a f33c c744 603e ca87 c9bc dc5a b8bd
000000b0: 085e 86bc 276b 9b3d 731d ab3d f9c8 7f3e
000000c0: ade1 82bd f604 693e b3e7 083e 6461 143d
000000d0: 1b00 2e3d ea08 943d b589 ad3e f5da 0c3e
000000e0: 435f a8bb abe0 9f3d 54c9 14bd 100c 1c3e
000000f0: 1b09 493e b907 9d3c 501f 9f3c e5fb 043e

layer1.0.bn2.running_mean f4 [64]
-0.072595105 0.15673786 -0.35793412 0.17008628 -0.43946543 -0.24766003 -0.20154625 -0.054435242
-0.13378376 -0.712615 -0.3695445 -0.39806938 -0.6179778 0.2235243 0.031211441 -0.37245196
-0.38890845 -0.50681394 -0.4821251 -0.18139657 -0.18105061 -0.16818751 -0.14009404 -0.38094956
-0.46379274 -0.3367355 0.37634593 -0.2232638 0.31858936 -0.37379718 -0.34091344 -0.51404446
-0.21056552 0.44468248 -0.32731506 -0.66124225 -0.29195818 -0.22097263 -0.5046655 -0.28439295
0.08078425 -0.16308986 -0.10327941 -0.097060025 -0.08605321 -0.23808116 0.07929199 -0.115396194
-0.40861836 0.06276902 0.24020228 -0.3404347 -0.5215246 -0.3078582 -0.16947025 -0.082448855
0.015266681 -0.30036244 -0.21462055 0.19828518 0.32895815 -0.14027055 -0.17720833 -0.057528537
00000000: beac 94bd e47f 203e 2443 b7be 192b 2e3e
00000010: 9d01 e1be 979a 7dbe 2462 4ebe 7df7 5ebd
00000020: 9cfe 08be f06d 36bf f034 bdbe c0cf cbbe
00000030: cb33 1ebf 8ee3 643e 23af ff3c 06b2 bebe
00000040: 021f c7be 8fbe 01bf 1ad9 f6be 06c0 39be
00000050: 5565 39be 5939 2cbe d074 0fbe d20b c3be
00000060: 3e76 edbe 9868 acbe 6ab0 c03e 449f 64be
00000070: 251e a33e 5862 bfbe 358c aebe 6b98 03bf
00000080: 7d9e 57be 6cad e33e d795 a7be 2c47 29bf
00000090: 8b7b 95be a646 62be c231 01bf f49b 91be
000000a0: 3672 a53d 0701 27be 2884 d3bd 68c7 c6bd
000000b0: aa3c b0bd 8ccb 73be d763 a23d d754 ecbd
000000c0: 6d36 d1be 0b8d 803d 96f7 753e 754d aebe
000000d0: a382 05bf 979f 9dbe 9c89 2dbe f2da a8bd
000000e0: 1a21 7a3c 1bc9 99be 7dc5 5bbe 450b 4b3e
000000f0: 346d a83e 15a3 0fbe 1a76 35be 0ba3 6bbd

layer1.0.bn2.running_var f4 [64]
0.29158905 0.2427569 0.23991223 0.3351677 0.2517081 0.13629043 0.34831813 0.27288613
0.22268462 0.37410146 0.27609548 0.19529743 0.22199279 0.23065795 0.14736849 0.24628258
0.17697005 0.15405901 0.2598183 0.2740948 0.18868701 0.22527297 0.22092964 0.16982107
0.2226219 0.20726131 0.27411076 0.1989613 0.21994618 0.17739645 0.26724523 0.24163243
0.16982505 0.25700188 0.19837761 0.18320057 0.12392136 0.23966926 0.21340899 0.17909418
0.26492798 0.23564216 0.145628 0.30666053 0.14458379 0.14649262 0.1969998 0.17940491
0.23163094 0.15573277 0.16691503 0.2741026 0.25855032 0.14416221 0.14407386 0.124780424
0.22480537 0.30169967 0.23361132 0.13803658 0.146989 0.20968518 0.2670256 0.17025952
00000000: 294b 953e 4495 783e 8dab 753e 1a9b ab3e
00000010: e2df 803e b88f 0b3e c156 b23e bbb7 8b3e
00000020: 7007 643e 3a8a bf3e 635c 8d3e 0dfc 473e
00000030: 1452 633e 9931 6c3e c4e7 163e 8031 7c3e
00000040: a337 353e a5c1 1d3e e706 853e 2756 8c3e
00000050: 2b37 413e f5ad 663e 613b 623e 93e5 2d3e
00000060: fff6 633e 4f3c 543e 3f58 8c3e 83bc 4b3e
00000070: 9239 613e 6aa7 353e 5ed4 883e 7e6e 773e
00000080: 9ee6 2d3e c095 833e 8023 4b3e ee98 3b3e
00000090: 7bca fd3d dc6b 753e e387 5a3e 7764 373e
000000a0: a4a4 873e 2e4c 713e 821f 153e 9c02 9d3e
000000b0: c60d 143e 2902 163e 51ba 493e ecb5 373e
000000c0: a930 6d3e 6978 1f3e c6eb 2a3e 2d57 8c3e
000000d0: b560 843e 429f 133e 1988 133e e18c ff3d
000000e0: 6133 663e 6178 9a3e ce37 6f3e 7659 0d3e
000000f0: 4984 163e b6b7 563e 94b7 883e 8358 2e3e

cpu f8 [100]
0.0009494980331510305 0.008014517836272717 0.0008739212644286454 0.0010326785268262029 0.0009188929107040167 0.0010189081076532602 0.007606434635818005 0.004354202188551426
0.00093235814711079 0.000982302357442677 0.006621562875807285 0.0045779612846672535 0.0009539712918922305 0.001032780040986836 0.0008157537085935473 0.0009879559511318803
0.0009126351214945316 0.0010271180653944612 0.007015115115791559 0.0009289787849411368 0.0010905996896326542 0.0008478224044665694 0.0009030793444253504 0.0009601461933925748
0.0008913520723581314 0.001020168885588646 0.00565161881968379 0.0009790759067982435 0.001013158936984837 0.000912453280761838 0.005828489549458027 0.000871024327352643
0.000912824587430805 0.000998351606540382 0.004032210446894169 0.0009473785175941885 0.001094370731152594 0.004260821267962456 0.0066647520288825035 0.0009505792404524982
0.001194858574308455 0.0009617135510779917 0.005793439224362373 0.0009551874245516956 0.001031471067108214 0.005291885230690241 0.0009520114399492741 0.000870166695676744
0.0011044875718653202 0.0009099054150283337 0.0009204260422848165 0.004697039257735014 0.0011252847034484148 0.0010278380941599607 0.001000334625132382 0.005242237355560064
0.0009697701898403466 0.00091127137420699 0.006120536010712385 0.001027534599415958 0.0056555671617388725 0.0009159727487713099 0.0043862746097147465 0.0008964031585492194
0.0059104375541210175 0.005470529664307833 0.0008882756810635328 0.0010164350969716907 0.0010722612496465445 0.000983174773864448 0.0010035454761236906 0.007024851627647877
0.005199208855628967 0.0045151920057833195 0.005879600532352924 0.0010035602608695626 0.001050173188559711 0.0011003342224285007 0.0009134591673500836 0.0009100880706682801
0.0009062185417860746 0.0009286610293202102 0.004578455816954374 0.0009314748458564281 0.0010120841907337308 0.005629005376249552 0.0009912512032315135 0.000896518467925489
0.0009355845395475626 0.0064148688688874245 0.0009356627706438303 0.009210826829075813 0.0010644008871167898 0.0010315176332369447 0.0009106403449550271 0.0009202620713040233
0.000947799941059202 0.004456376191228628 0.007379145827144384 0.005847814958542585
00000000: 0000 0080 f71c 4f3f 0000 0060 ea69 803f
00000010: 0000 00a0 fba2 4c3f 0000 0020 5eeb 503f
00000020: 0000 0080 3b1c 4e3f 0000 0040 9cb1 503f
00000030: 0000 00c0 ec27 7f3f 0000 0040 b6d5 713f
00000040: 0000 00e0 2f8d 4e3f 0000 0020 1318 503f
00000050: 0000 0040 361f 7b3f 0000 0020 57c0 723f
00000060: 0000 00c0 7d42 4f3f 0000 0020 cbeb 503f
00000070: 0000 00c0 09bb 4a3f 0000 00a0 c92f 503f
00000080: 0000 0000 bde7 4d3f 0000 00a0 0bd4 503f
00000090: 0000 00a0 e1bb 7c3f 0000 00c0 d670 4e3f
000000a0: 0000 0080 4ede 513f 0000 00c0 0cc8 4b3f
000000b0: 0000 0020 9497 4d3f 0000 0040 4a76 4f3f
000000c0: 0000 0000 3435 4d3f 0000 0000 e6b6 503f
000000d0: 0000 00e0 2626 773f 0000 00c0 8a0a 503f
000000e0: 0000 0020 7f99 503f 0000 0080 36e6 4d3f
000000f0: 0000 0040 9ddf 773f 0000 0080 ae8a 4c3f
00000100: 0000 00e0 53e9 4d3f 0000 00e0 635b 503f
00000110: 0000 0040 1484 703f 0000 00e0 2f0b 4f3f
00000120: 0000 00a0 1fee 513f 0000 0080 cb73 713f
00000130: 0000 00c0 7f4c 7b3f 0000 0060 0926 4f3f
00000140: 0000 00a0 9993 533f 0000 0020 7083 4f3f
00000150: 0000 0080 dcba 773f 0000 0060 b14c 4f3f
00000160: 0000 00a0 4de6 503f 0000 00a0 f1ac 753f
00000170: 0000 0000 0d32 4f3f 0000 00c0 7c83 4c3f
00000180: 0000 0080 8e18 523f 0000 0000 d7d0 4d3f
00000190: 0000 00e0 1729 4e3f 0000 00e0 333d 733f
000001a0: 0000 0040 c96f 523f 0000 00c0 10d7 503f
000001b0: 0000 0020 b563 503f 0000 0060 e278 753f
000001c0: 0000 00a0 05c7 4f3f 0000 0060 4cdc 4d3f
000001d0: 0000 00e0 d811 793f 0000 00e0 cad5 503f
000001e0: 0000 00c0 4a2a 773f 0000 0080 bc03 4e3f
000001f0: 0000 00a0 57f7 713f 0000 0020 935f 4d3f
00000200: 0000 0000 8b35 783f 0000 0020 4468 763f
00000210: 0000 0080 651b 4d3f 0000 00e0 3ca7 503f
00000220: 0000 00c0 6391 513f 0000 00e0 bb1b 503f
00000230: 0000 00c0 2c71 503f 0000 0040 17c6 7c3f
00000240: 0000 0000 c44b 753f 0000 00a0 857e 723f
00000250: 0000 0040 3515 783f 0000 00a0 3c71 503f
00000260: 0000 00e0 be34 513f 0000 00e0 2207 523f
00000270: 0000 00a0 a6ee 4d3f 0000 0040 5fd2 4d3f
00000280: 0000 0080 e9b1 4d3f 0000 0060 2c6e 4e3f
00000290: 0000 00e0 dbc0 723f 0000 0000 c785 4e3f
000002a0: 0000 0020 fd94 503f 0000 00a0 700e 773f
000002b0: 0000 00e0 9b3d 503f 0000 00c0 8a60 4d3f
000002c0: 0000 0080 40a8 4e3f 0000 0040 7a46 7a3f
000002d0: 0000 0080 e8a8 4e3f 0000 0040 20dd 823f
000002e0: 0000 00c0 6b70 513f 0000 00a0 7fe6 503f
000002f0: 0000 0040 01d7 4d3f 0000 00c0 b727 4e3f
00000300: 0000 00e0 b80e 4f3f 0000 0060 d940 723f
00000310: 0000 0060 9839 7e3f 0000 00e0 e0f3 773f

cpu f4 [100]
-0.013848707 -0.058059502 -0.102796726 -0.035553608 -0.05935756 -0.086959206 -0.120739475 0.22371893
-0.07341482 -0.07306669 0.1022737 0.020403596 -0.106358714 0.03732484 -0.103744246 -0.12829924
-0.08422607 0.020384185 0.12754889 0.00349961 -0.0732701 -0.10718353 -0.12848389 -0.05159572
-0.11925731 0.036820047 0.11512534 -0.066596106 -0.0012023065 -0.03328867 0.08088504 -0.029474834
-0.12587745 -0.044906996 0.15337266 -0.057650313 0.00068236014 0.040083427 0.10308075 -0.109813005
-0.06971242 -0.08538568 0.1745659 -0.054228354 0.0015264307 0.20740224 -0.01676743 -0.061667927
-0.06717629 -0.06521605 -0.119452715 -0.004655599 0.017188927 -0.06884644 -0.08203776 -0.020169944
-0.06043717 -0.09246621 0.17032242 -0.01543003 0.020551164 -0.00015044147 0.11272805 -0.07865241
0.18313539 0.058193665 0.010248871 -0.06570505 -0.08462447 -0.070325285 -0.018682897 -0.02702419
0.022590216 0.032184523 0.20954235 -0.10675211 -0.011306708 -0.09693759 0.05170572 -0.12086159
-0.1202592 -0.10442978 0.13574247 -0.09719506 -0.011564873 0.07561395 -0.118377425 -0.08473507
-0.027312595 0.14170922 -0.010268673 0.043200783 -0.014970507 -0.06963072 -0.06119037 -0.043819215
-0.13568686 0.21676005 0.08545992 -0.017525218
00000000: b0e5 62bc cdcf 6dbd 1787 d2bd a9a0 11bd
00000010: ea20 73bd ab17 b2bd 4246 f7bd 9316 653e
00000020: 825a 96bd fda3 95bd e074 d13d 7125 a73c
00000030: 99d2 d9bd eee1 183d dd77 d4bd e060 03be
00000040: b87e acbd bcfc a63c 2d9c 023e b659 653b
00000050: a20e 96bd 0a83 dbbd 4891 03be 0956 53bd
00000060: 2d3d f4bd 9ed0 163d d6c6 eb3d 8a63 88bd
00000070: b696 9dba b359 08bd 0ea7 a53d 3575 f1bc
00000080: 05e6 00be 66f0 37bd b90d 1d3e bc22 6cbd
00000090: 6ae0 323a 852e 243d 001c d33d a4e5 e0bd
000000a0: 63c5 8ebd b0de aebd 67c1 323e 8d1e 5ebd
000000b0: 8412 c83a 4161 543e d95b 89bc 8297 7cbd
000000c0: b993 89bd fe8f 85bd a0a3 f4bd ff8d 98bb
000000d0: cbcf 8c3c 5dff 8cbd 6a03 a8bd 703b a5bc
000000e0: f78c 77bd ed5e bdbd 0069 2e3e 3dce 7cbc
000000f0: ea5a a83c d3bf 1db9 f7dd e63d 8414 a1bd
00000100: d887 3b3e 7b5c 6e3d e1ea 273c 5f90 86bd
00000110: 984f adbd b406 90bd e00c 99bc d661 ddbc
00000120: 1e0f b93c ebd3 033d 4592 563e daa0 dabd
00000130: c53f 39bc 3787 c6bd 61c9 533d 4886 f7bd
00000140: 754a f6bd 48df d5bd 1300 0b3e 340e c7bd
00000150: 987a 3dbc 7ddb 9a3d dd6f f2bd 9589 adbd
00000160: aabe dfbc 391c 113e f03d 28bc 4ef3 303d
00000170: db46 75bc 8d9a 8ebd c1a2 7abd c77b 33bd
00000180: 7ff1 0abe 59f6 5d3e 9c05 af3d 0c91 8fbc
